src/outputFiles/test/model_state.pth (torch, 732275 bytes, 12 tensors)

convolution_1.bias f4 [256]
0.0 0.0 0.0 0.0 0.0 0.0 0.0 0.0
0.0 0.0 0.0 0.0 0.0 0.0 0.0 0.0
0.0 0.0 0.0 0.0 0.0 0.0 0.0 0.0
0.0 0.0 0.0 0.0 0.0 0.0 0.0 0.0
0.0 0.0 0.0 0.0 0.0 0.0 0.0 0.0
0.0 0.0 0.0 0.0 0.0 0.0 0.0 0.0
0.0 0.0 0.0 0.0 0.0 0.0 0.0 0.0
0.0 0.0 0.0 0.0 0.0 0.0 0.0 0.0
0.0 0.0 0.0 0.0 0.0 0.0 0.0 0.0
0.0 0.0 0.0 0.0 0.0 0.0 0.0 0.0
0.0 0.0 0.0 0.0 0.0 0.0 0.0 0.0
0.0 0.0 0.0 0.0 0.0 0.0 0.0 0.0
0.0 0.0 0.0 0.0 0.0 0.0 0.0 0.0
0.0 0.0 0.0 0.0 0.0 0.0 0.0 0.0
0.0 0.0 0.0 0.0 0.0 0.0 0.0 0.0
0.0 0.0 0.0 0.0 0.0 0.0 0.0 0.0
0.0 0.0 0.0 0.0 0.0 0.0 0.0 0.0
0.0 0.0 0.0 0.0 0.0 0.0 0.0 0.0
0.0 0.0 0.0 0.0 0.0 0.0 0.0 0.0
0.0 0.0 0.0 0.0 0.0 0.0 0.0 0.0
0.0 0.0 0.0 0.0 0.0 0.0 0.0 0.0
0.0 0.0 0.0 0.0 0.0 0.0 0.0 0.0
0.0 0.0 0.0 0.0 0.0 0.0 0.0 0.0
0.0 0.0 0.0 0.0 0.0 0.0 0.0 0.0
0.0 0.0 0.0 0.0 0.0 0.0 0.0 0.0
0.0 0.0 0.0 0.0 0.0 0.0 0.0 0.0
0.0 0.0 0.0 0.0 0.0 0.0 0.0 0.0
0.0 0.0 0.0 0.0 0.0 0.0 0.0 0.0
0.0 0.0 0.0 0.0 0.0 0.0 0.0 0.0
0.0 0.0 0.0 0.0 0.0 0.0 0.0 0.0
0.0 0.0 0.0 0.0 0.0 0.0 0.0 0.0
0.0 0.0 0.0 0.0 0.0 0.0 0.0 0.0
00000000: 0000 0000 0000 0000 0000 0000 0000 0000
00000010: 0000 0000 0000 0000 0000 0000 0000 0000
00000020: 0000 0000 0000 0000 0000 0000 0000 0000
00000030: 0000 0000 0000 0000 0000 0000 0000 0000
00000040: 0000 0000 0000 0000 0000 0000 0000 0000
00000050: 0000 0000 0000 0000 0000 0000 0000 0000
00000060: 0000 0000 0000 0000 0000 0000 0000 0000
00000070: 0000 0000 0000 0000 0000 0000 0000 0000
00000080: 0000 0000 0000 0000 0000 0000 0000 0000
00000090: 0000 0000 0000 0000 0000 0000 0000 0000
000000a0: 0000 0000 0000 0000 0000 0000 0000 0000
000000b0: 0000 0000 0000 0000 0000 0000 0000 0000
000000c0: 0000 0000 0000 0000 0000 0000 0000 0000
000000d0: 0000 0000 0000 0000 0000 0000 0000 0000
000000e0: 0000 0000 0000 0000 0000 0000 0000 0000
000000f0: 0000 0000 0000 0000 0000 0000 0000 0000
00000100: 0000 0000 0000 0000 0000 0000 0000 0000
00000110: 0000 0000 0000 0000 0000 0000 0000 0000
00000120: 0000 0000 0000 0000 0000 0000 0000 0000
00000130: 0000 0000 0000 0000 0000 0000 0000 0000
00000140: 0000 0000 0000 0000 0000 0000 0000 0000
00000150: 0000 0000 0000 0000 0000 0000 0000 0000
00000160: 0000 0000 0000 0000 0000 0000 0000 0000
00000170: 0000 0000 0000 0000 0000 0000 0000 0000
00000180: 0000 0000 0000 0000 0000 0000 0000 0000
00000190: 0000 0000 0000 0000 0000 0000 0000 0000
000001a0: 0000 0000 0000 0000 0000 0000 0000 0000
000001b0: 0000 0000 0000 0000 0000 0000 0000 0000
000001c0: 0000 0000 0000 0000 0000 0000 0000 0000
000001d0: 0000 0000 0000 0000 0000 0000 0000 0000
000001e0: 0000 0000 0000 0000 0000 0000 0000 0000
000001f0: 0000 0000 0000 0000 0000 0000 0000 0000
00000200: 0000 0000 0000 0000 0000 0000 0000 0000
00000210: 0000 0000 0000 0000 0000 0000 0000 0000
00000220: 0000 0000 0000 0000 0000 0000 0000 0000
00000230: 0000 0000 0000 0000 0000 0000 0000 0000
00000240: 0000 0000 0000 0000 0000 0000 0000 0000
00000250: 0000 0000 0000 0000 0000 0000 0000 0000
00000260: 0000 0000 0000 0000 0000 0000 0000 0000
00000270: 0000 0000 0000 0000 0000 0000 0000 0000
00000280: 0000 0000 0000 0000 0000 0000 0000 0000
00000290: 0000 0000 0000 0000 0000 0000 0000 0000
000002a0: 0000 0000 0000 0000 0000 0000 0000 0000
000002b0: 0000 0000 0000 0000 0000 0000 0000 0000
000002c0: 0000 0000 0000 0000 0000 0000 0000 0000
000002d0: 0000 0000 0000 0000 0000 0000 0000 0000
000002e0: 0000 0000 0000 0000 0000 0000 0000 0000
000002f0: 0000 0000 0000 0000 0000 0000 0000 0000
00000300: 0000 0000 0000 0000 0000 0000 0000 0000
00000310: 0000 0000 0000 0000 0000 0000 0000 0000
00000320: 0000 0000 0000 0000 0000 0000 0000 0000
00000330: 0000 0000 0000 0000 0000 0000 0000 0000
00000340: 0000 0000 0000 0000 0000 0000 0000 0000
00000350: 0000 0000 0000 0000 0000 0000 0000 0000
00000360: 0000 0000 0000 0000 0000 0000 0000 0000
00000370: 0000 0000 0000 0000 0000 0000 0000 0000
00000380: 0000 0000 0000 0000 0000 0000 0000 0000
00000390: 0000 0000 0000 0000 0000 0000 0000 0000
000003a0: 0000 0000 0000 0000 0000 0000 0000 0000
000003b0: 0000 0000 0000 0000 0000 0000 0000 0000
000003c0: 0000 0000 0000 0000 0000 0000 0000 0000
000003d0: 0000 0000 0000 0000 0000 0000 0000 0000
000003e0: 0000 0000 0000 0000 0000 0000 0000 0000
000003f0: 0000 0000 0000 0000 0000 0000 0000 0000

convolution_2.bias f4 [128]
0.0 0.0 0.0 0.0 0.0 0.0 0.0 0.0
0.0 0.0 0.0 0.0 0.0 0.0 0.0 0.0
0.0 0.0 0.0 0.0 0.0 0.0 0.0 0.0
0.0 0.0 0.0 0.0 0.0 0.0 0.0 0.0
0.0 0.0 0.0 0.0 0.0 0.0 0.0 0.0
0.0 0.0 0.0 0.0 0.0 0.0 0.0 0.0
0.0 0.0 0.0 0.0 0.0 0.0 0.0 0.0
0.0 0.0 0.0 0.0 0.0 0.0 0.0 0.0
0.0 0.0 0.0 0.0 0.0 0.0 0.0 0.0
0.0 0.0 0.0 0.0 0.0 0.0 0.0 0.0
0.0 0.0 0.0 0.0 0.0 0.0 0.0 0.0
0.0 0.0 0.0 0.0 0.0 0.0 0.0 0.0
0.0 0.0 0.0 0.0 0.0 0.0 0.0 0.0
0.0 0.0 0.0 0.0 0.0 0.0 0.0 0.0
0.0 0.0 0.0 0.0 0.0 0.0 0.0 0.0
0.0 0.0 0.0 0.0 0.0 0.0 0.0 0.0
00000000: 0000 0000 0000 0000 0000 0000 0000 0000
00000010: 0000 0000 0000 0000 0000 0000 0000 0000
00000020: 0000 0000 0000 0000 0000 0000 0000 0000
00000030: 0000 0000 0000 0000 0000 0000 0000 0000
00000040: 0000 0000 0000 0000 0000 0000 0000 0000
00000050: 0000 0000 0000 0000 0000 0000 0000 0000
00000060: 0000 0000 0000 0000 0000 0000 0000 0000
00000070: 0000 0000 0000 0000 0000 0000 0000 0000
00000080: 0000 0000 0000 0000 0000 0000 0000 0000
00000090: 0000 0000 0000 0000 0000 0000 0000 0000
000000a0: 0000 0000 0000 0000 0000 0000 0000 0000
000000b0: 0000 0000 0000 0000 0000 0000 0000 0000
000000c0: 0000 0000 0000 0000 0000 0000 0000 0000
000000d0: 0000 0000 0000 0000 0000 0000 0000 0000
000000e0: 0000 0000 0000 0000 0000 0000 0000 0000
000000f0: 0000 0000 0000 0000 0000 0000 0000 0000
00000100: 0000 0000 0000 0000 0000 0000 0000 0000
00000110: 0000 0000 0000 0000 0000 0000 0000 0000
00000120: 0000 0000 0000 0000 0000 0000 0000 0000
00000130: 0000 0000 0000 0000 0000 0000 0000 0000
00000140: 0000 0000 0000 0000 0000 0000 0000 0000
00000150: 0000 0000 0000 0000 0000 0000 0000 0000
00000160: 0000 0000 0000 0000 0000 0000 0000 0000
00000170: 0000 0000 0000 0000 0000 0000 0000 0000
00000180: 0000 0000 0000 0000 0000 0000 0000 0000
00000190: 0000 0000 0000 0000 0000 0000 0000 0000
000001a0: 0000 0000 0000 0000 0000 0000 0000 0000
000001b0: 0000 0000 0000 0000 0000 0000 0000 0000
000001c0: 0000 0000 0000 0000 0000 0000 0000 0000
000001d0: 0000 0000 0000 0000 0000 0000 0000 0000
000001e0: 0000 0000 0000 0000 0000 0000 0000 0000
000001f0: 0000 0000 0000 0000 0000 0000 0000 0000

convolution_2.lin.weight f4 [128, 256]
0.064005926 0.032628953 0.09651619 0.074098244 0.07240662 0.07421109 -0.05617106 0.061832473
0.08173826 0.07711503 -0.0647655 0.07216397 0.043517753 0.033057198 0.12252088 0.0017474592
0.10248396 0.025730744 0.03583619 0.0065861046 -0.11734 -0.08619696 -0.03253694 0.09714161
-0.0076357275 0.086982474 0.09341389 -0.06636131 0.032702282 0.033239648 0.028559804 0.10170066
-0.021685109 -0.0395768 0.016672686 0.026336044 0.03717944 -0.035754085 -0.090514466 -0.0010586232
0.027910396 0.059994698 0.0241023 -0.028768554 -0.0066541135 0.12387401 -0.046144724 -0.09853704
-0.024349794 -0.042891577 -0.053400606 -0.0092122555 0.06912677 -0.032980636 -0.012878239 -0.046714067
-0.030861482 -0.07518901 -0.0017425567 -0.017364949 0.0641541 0.08395167 -0.104903385 0.098899424
0.1235788 -0.08152218 -0.11566496 0.0069573373 -0.018076539 -0.12196012 -0.045394704 -0.046822682
0.04759638 -0.115382865 -0.117166996 -0.07978718 0.123943284 -0.07714453 -0.076502055 0.06749728
0.026813596 0.0975384 -0.03294994 -0.047966495 0.0675824 0.040706977 0.057753786 0.05306025
0.015877277 -0.051141754 0.02777201 -0.041619778 0.027958557 -0.010715455 -0.107681125 0.10773814
-0.029373452 0.09716757 -0.028577477 -0.12134127 0.102794215 0.077857584 -0.09311904 -0.032201633
-0.03177832 0.07378581 -0.017623052 0.107919544 0.042709872 0.06233552 0.025910318 0.08540636
0.0019598305 0.052091286 0.0011054277 -0.041178554 0.10968782 -0.10458045 0.033454448 -0.009560078
0.083092615 0.016616061 0.06777994 0.04282908 0.09066285 0.042687938 0.014361456 -0.06271207
-0.10545355 -0.07062858 0.076194435 0.087754205 0.010257244 -0.068446055 -0.09189722 -0.06520575
0.05292195 -0.07217148 0.039554298 -0.044034585 -0.06978038 -0.10134794 -0.042407334 -0.038110033
-0.085730106 -0.114495605 -0.04707156 0.11560674 -0.085131645 -0.11729796 0.029272988 -0.03869462
0.042868093 0.010721311 -0.0060070753 -0.01662457 -0.030418158 -0.050687075 0.025251657 -0.11128862
-0.057827994 0.02775836 -0.11279847 -0.03543307 -0.12133005 -0.045370027 -0.067366615 0.06269486
0.09931967 0.049832404 -0.099374294 0.07464635 -0.11187166 -0.06562199 0.06757128 0.027029917
0.03755158 0.0060972422 -0.035524875 0.05619064 -0.037645027 0.024917588 -0.11230017 -0.10850765
-0.04666446 -0.068638116 0.022950485 -0.07850416 -0.099313185 -0.09838134 0.019280642 0.04876691
-0.03683576 0.05171889 0.033414513 -0.013859823 -0.070757195 -0.036112204 0.06438206 0.047216818
-0.07550496 -0.11851512 -0.038344935 -0.12443513 -0.008999646 -0.1124261 -0.04716821 0.12108454
0.056890473 0.0070599765 -0.024117276 0.08814329 -0.07209569 0.010366872 0.07101093 -0.03905937
0.029581696 0.07787265 0.07469568 -0.023232892 0.05334209 -0.042056397 -0.11307737 -0.009898305
-0.046105057 0.034588963 -0.09426905 0.018492699 0.07497081 0.03624624 -0.095166996 -5.6385994e-05
0.046336457 -0.04381165 -0.042108193 0.08001496 -0.050573513 -0.08215411 -0.114089906 -0.069398016
0.077490434 -0.008424386 -0.011990175 0.04880698 -0.09523685 -0.01143381 -0.12455304 -0.07006092
0.064557314 0.08043641 -0.116130486 0.005523458 0.058497936 -0.060799643 0.05632116 -0.052887917
00000000: 8a15 833d f0a5 053d 48aa c53d d2c0 973d
00000010: ec49 943d fcfb 973d a013 66bd 0c44 7d3d
00000020: 6466 a73d 7cee 9d3d c6a3 84bd b4ca 933d
00000030: ac3f 323d fc66 073d 3aec fa3d 000b e53a
00000040: 1ce3 d13d 48c9 d23c f8c8 123d 40d0 d73b
00000050: f44f f0bd 0888 b0bd 7445 05bd 2ef2 c63d
00000060: 2035 fabb de23 b23d c84f bf3d 70e8 87bd
00000070: d4f2 053d 4c26 083d 40f6 e93c 7048 d03d
00000080: f8a4 b1bc 481b 22bd 2895 883c b0be d73c
00000090: 7849 183d e072 12bd a65f b9bd 80c1 8aba
000000a0: 58a4 e43c 00bd 753d 3072 c53c 08ac ebbc
000000b0: c00a dabb a8b1 fd3d 4002 3dbd cacd c9bd
000000c0: 3879 c7bc 14af 2fbd 98ba 5abd 00ef 16bc
000000d0: 5692 8d3d b416 07bd 40ff 52bc 4057 3fbd
000000e0: 38d1 fcbc b2fc 99bd 8066 e4ba f040 8ebc
000000f0: 3a63 833d daee ab3d 96d7 d6bd c88b ca3d
00000100: e216 fd3d 1af5 a6bd c0e1 ecbd 60fa e33b
00000110: 4015 94bc 3ac6 f9bd ccef 39bd 24c9 3fbd
00000120: 6cf4 423d da4d ecbd 40f5 efbd 7667 a3bd
00000130: fad5 fd3d f4fd 9dbd 1cad 9cbd 043c 8a3d
00000140: 30a8 db3c 36c2 c73d 84f6 06bd 8478 44bd
00000150: a468 8a3d 5cbc 263d 3c8f 6c3d b455 593d
00000160: 1011 823c 047a 51bd 2082 e33c 8079 2abd
00000170: 5809 e53c e08f 2fbc ec87 dcbd d0a5 dc3d
00000180: 98a0 f0bc caff c63d 501b eabc c681 f8bd
00000190: c685 d23d cc73 9f3d 32b5 bebd dce5 03bd
000001a0: fc29 02bd 041d 973d 385e 90bc ec04 dd3d
000001b0: 8cf0 2e3d 8853 7f3d e041 d43c 88e9 ae3d
000001c0: 8070 003b ac5d 553d 00e4 903a d8aa 28bd
000001d0: 02a4 e03d 462e d6bd 8807 093d e0a1 1cbc
000001e0: 762c aa3d 681e 883c 36d0 8a3d 8c6d 2f3d
000001f0: 72ad b93d 8cd9 2e3d 504c 6b3c 306f 80bd
00000200: 08f8 d7bd b8a5 90bd d40b 9c3d 7ab8 b33d
00000210: 000e 283c 722d 8cbd 9c34 bcbd 988a 85bd
00000220: b0c4 583d a4ce 93bd b003 223d 9c5d 34bd
00000230: 04e9 8ebd 828f cfbd 50b3 2dbd 4419 1cbd
00000240: 4493 afbd ac7c eabd 1cce 40bd 3ac3 ec3d
00000250: 8059 aebd ea39 f0bd e8cd ef3c 407e 1ebd
00000260: 7496 2f3d 70a8 2f3c 00d7 c4bb 4030 88bc
00000270: 802f f9bc 409d 4fbd 90dc ce3c 4aeb e3bd
00000280: 0cdd 6cbd 8065 e33c e202 e7bd 4422 11bd
00000290: e47b f8bd ecd5 39bd 82f7 89bd 2a66 803d
000002a0: 1c68 cb3d 101d 4c3d c084 cbbd 30e0 983d
000002b0: f81c e5bd d264 86bd d062 8a3d d86d dd3c
000002c0: b0cf 193d 60cb c73b 8882 11bd 2828 663d
000002d0: ac31 1abd f81f cc3c a2fd e5bd 4239 debd
000002e0: 3c23 3fbd 2492 8cbd a802 bc3c cac6 a0bd
000002f0: b664 cbbd 287c c9bd 70f2 9d3c d0bf 473d
00000300: 18e1 16bd 30d7 533d a8dd 083d 5014 63bc
00000310: 26e9 90bd 64ea 13bd beda 833d 6c66 413d
00000320: 58a2 9abd 0eb8 f2bd 940f 1dbd d8d7 febd
00000330: 4073 13bc a83f e6bd 7433 41bd 2cfb f73d
00000340: fc05 693d 6057 e73b 9891 c5bc 7884 b43d
00000350: e8a6 93bd d0d9 293c 2e6e 913d b8fc 1fbd
00000360: 5055 f23c b27b 9f3d 0cfa 983d e852 bebc
00000370: 3c7d 5a3d 5443 2cbd 1c95 e7bd 802c 22bc
00000380: a8d8 3cbd 28ad 0d3d 2210 c1bd 007e 973c
00000390: 4c8a 993d f076 143d eae6 c2bd 0080 6cb8
000003a0: 4ccb 3d3d d873 33bd a479 2cbd e2de a33d
000003b0: 2c26 4fbd 6a40 a8bd f8a7 e9bd 8c20 8ebd
000003c0: 4eb3 9e3d 7006 0abc 7072 44bc d4e9 473d
000003d0: 8a0b c3bd e054 3bbc aa15 ffbd 1a7c 8fbd
000003e0: a036 843d d8bb a43d d2d5 edbd 20fe b43b
000003f0: 889b 6f3d 0c09 79bd 04b1 663d 00a1 58bd

convolution_3.bias f4 [64]
0.0 0.0 0.0 0.0 0.0 0.0 0.0 0.0
0.0 0.0 0.0 0.0 0.0 0.0 0.0 0.0
0.0 0.0 0.0 0.0 0.0 0.0 0.0 0.0
0.0 0.0 0.0 0.0 0.0 0.0 0.0 0.0
0.0 0.0 0.0 0.0 0.0 0.0 0.0 0.0
0.0 0.0 0.0 0.0 0.0 0.0 0.0 0.0
0.0 0.0 0.0 0.0 0.0 0.0 0.0 0.0
0.0 0.0 0.0 0.0 0.0 0.0 0.0 0.0
00000000: 0000 0000 0000 0000 0000 0000 0000 0000
00000010: 0000 0000 0000 0000 0000 0000 0000 0000
00000020: 0000 0000 0000 0000 0000 0000 0000 0000
00000030: 0000 0000 0000 0000 0000 0000 0000 0000
00000040: 0000 0000 0000 0000 0000 0000 0000 0000
00000050: 0000 0000 0000 0000 0000 0000 0000 0000
00000060: 0000 0000 0000 0000 0000 0000 0000 0000
00000070: 0000 0000 0000 0000 0000 0000 0000 0000
00000080: 0000 0000 0000 0000 0000 0000 0000 0000
00000090: 0000 0000 0000 0000 0000 0000 0000 0000
000000a0: 0000 0000 0000 0000 0000 0000 0000 0000
000000b0: 0000 0000 0000 0000 0000 0000 0000 0000
000000c0: 0000 0000 0000 0000 0000 0000 0000 0000
000000d0: 0000 0000 0000 0000 0000 0000 0000 0000
000000e0: 0000 0000 0000 0000 0000 0000 0000 0000
000000f0: 0000 0000 0000 0000 0000 0000 0000 0000

convolution_3.lin.weight f4 [64, 128]
-0.032334626 -0.07840778 0.07628332 -0.15992993 -0.1333096 0.15470545 -0.064427525 -0.09015426
-0.013599455 0.020509198 -0.14838706 -0.03339371 0.023004472 -0.036990732 -0.059549496 -0.0052333325
-0.13750546 -0.028662235 -0.12885177 0.033939615 0.14995806 -0.10152512 0.17298342 -0.12744944
0.043821663 0.17384095 0.15149091 0.0032841265 -0.094737306 0.16414659 -0.0648271 0.025747448
0.06349009 0.08500175 -0.105906054 0.17555518 0.16807123 0.05817786 0.1030104 0.17177196
0.051472425 0.17367171 -0.05454369 -0.075828165 0.07564403 -0.17336904 0.056008056 -0.03132628
0.14140652 -0.11137905 0.10109098 0.12053485 0.057331517 0.115563825 0.06699151 0.12550668
-0.0052046925 0.17622744 0.08851345 -0.018116921 -0.12450884 0.08201037 -0.1652969 0.16604058
0.096016005 0.1537853 -0.110266834 -0.087970294 0.14637686 0.11133708 0.034510687 -0.001197353
0.09291752 0.12550049 0.06720525 0.09459253 -0.10026105 0.00020985305 -0.05745005 -0.12920384
-0.09855973 0.17178567 0.093566075 -0.1339237 0.03908047 0.051677436 0.11828916 -0.102962874
0.04775615 -0.0676474 -0.011772662 0.04173012 0.09969635 -0.08258666 0.005165532 -0.16637772
-0.08964085 0.13919134 0.094266996 0.16606863 0.1737576 -0.14967403 -0.17534374 0.06469761
-0.15951301 0.16664945 -0.047348112 0.012967974 0.12738343 -0.057687 -0.14171527 0.11979847
0.05487287 0.06377901 -0.17313302 -0.15744267 0.13347001 0.16284923 0.08566879 -0.11402307
-0.10989477 0.13138862 0.054873988 -0.028081372 -0.08741739 -0.09697914 0.032122687 -0.1022374
-0.09027092 0.011329427 0.016009971 -0.095515564 0.0026748925 -0.106899306 -0.11230765 -0.0026460588
0.098289594 -0.0008048564 -0.118443176 -0.0593357 -0.07553484 -0.16730805 -0.1292536 0.128282
-0.09914477 -0.08994066 -0.08212987 0.15334223 -0.1603196 -0.08344248 -0.016682103 0.14450724
-0.00054730475 0.0446015 -0.06878679 -0.015626535 0.0424895 -0.08147072 -0.08922479 0.15443544
-0.108645216 0.060102984 -0.09929157 0.013216361 -0.14672577 0.14365463 0.025311396 -0.16812472
-0.01284413 -0.07951996 -0.12433756 -0.13446033 0.009002551 0.041444197 0.06246808 0.15466891
-0.10676311 -0.00058588386 0.10234617 -0.12771325 0.07827295 -0.035412 -0.17201962 0.027996868
0.16039656 0.098583505 -0.16524869 0.045768023 -0.16889803 -0.11907047 0.047085494 0.16069229
0.038303494 0.10601206 0.07602255 -0.14563869 0.09741022 -0.039847583 0.12794454 0.11582352
-0.038632035 -0.14124969 -0.031745404 -0.07463098 -0.11935842 -0.1677563 -0.15818939 0.005991146
0.019277424 -0.1040584 0.07728894 0.007915437 -0.09340251 0.118593976 0.05984418 0.05137062
0.032043383 0.09090079 0.15775715 0.0957119 0.011842251 0.067001686 0.05641827 0.009191066
0.0063613653 -0.17265126 -0.07926694 0.049301997 -0.018959254 -0.17496878 -0.01007916 0.01723741
0.14412265 -0.050145835 0.12019281 0.09496696 -0.04496786 0.1392874 -0.07949661 0.16943182
0.08888088 0.048300758 -0.03862953 0.03493738 -0.040222317 0.06639926 0.13753681 0.07145378
0.046113417 -0.14792374 -0.049102083 -0.032138363 0.114473715 -0.1337232 -0.061726503 0.06597862
00000000: 5071 04bd 4294 a0bd 6e3a 9c3d acc4 23be
00000010: 5082 08be 1b6b 1e3e 94f2 83bd cca2 b8bd
00000020: 40d0 5ebc e802 a83c c7f2 17be d8c7 08bd
00000030: e073 bc3c 9883 17bd 2cea 73bd 607c abbb
00000040: 3bce 0cbe 10cd eabc b8f1 03be 4404 0b3d
00000050: 9b8e 193e 67ec cfbd 9122 313e 1b82 02be
00000060: 587e 333d 5d03 323e 6f20 1b3e 803a 573b
00000070: a205 c2bd 0b16 283e 12c4 84bd 50ec d23c
00000080: 1807 823d 6615 ae3d 46e5 d8bd bdc4 333e
00000090: dd1a 2c3e e84b 6e3d 1ef7 d23d fde4 2f3e
000000a0: c0d4 523d ffd6 313e 3469 5fbd cc4b 9bbd
000000b0: 42eb 9a3d a787 31be b468 653d fc4f 00bd
000000c0: dfcc 103e b31a e4bd ca08 cf3d fada f63d
000000d0: 74d4 6a3d baac ec3d d832 893d d384 003e
000000e0: 208c aabb f774 343e 8a46 b53d f069 94bc
000000f0: 7efe febd 0ef5 a73d 9743 29be 8b06 2a3e
00000100: 0aa4 c43d e579 1d3e 94d3 e1bd c529 b4bd
00000110: d1e3 153e b204 e43d 145b 0d3d 80f0 9cba
00000120: 8a4b be3d 3383 003e e8a2 893d bab9 c13d
00000130: aa55 cdbd 000c 5c39 be50 6bbd 034e 04be
00000140: afd9 c9bd 95e8 2f3e 929f bf3d 4b23 09be
00000150: d812 203d b8ab 533d 9641 f23d 33de d2bd
00000160: f49b 433d b88a 8abd 20e2 40bc 34ed 2a3d
00000170: 9a2d cc3d 3223 a9bd a043 a93b ec5e 2abe
00000180: 9f95 b7bd 2d88 0e3e 0e0f c13d e50d 2a3e
00000190: 83ed 313e 2644 19be 4f8d 33be 2e80 843d
000001a0: 6157 23be 27a6 2a3e 18f0 41bd a077 543c
000001b0: cd70 023e 3449 6cbd cf1d 11be e658 f53d
000001c0: 60c2 603d 929e 823d c849 31be a738 21be
000001d0: 5dac 083e f3c1 263e 1e73 af3d ed84 e9bd
000001e0: 8210 e1bd bd8a 063e 8cc3 603d e80a e6bc
000001f0: e307 b3bd 009d c6bd 1493 033d d861 d1bd
00000200: f6df b8bd 109f 393c 5827 833c aa9d c3bd
00000210: 404d 2f3b 06ee dabd 8e01 e6bd 8069 2dbb
00000220: 0e4c c93d 00fd 52ba 5692 f2bd fe09 73bd
00000230: 03b2 9abd cd52 2bbe 0e5b 04be 5b5c 033e
00000240: 6a0c cbbd cf32 b8bd b533 a8bd bf05 1d3e
00000250: d22a 24be e4e3 aabd e8a8 88bc b5f9 133e
00000260: 0079 0fba 10b0 363d 17e0 8cbd 3803 80bc
00000270: 7809 2e3d 1fda a6bd 7dbb b6bd 5324 1e3e
00000280: 6281 debd 8c2e 763d 6159 cbbd 7089 583c
00000290: 483f 16be 331a 133e d859 cf3c e328 2cbe
000002a0: 3070 52bc 5cdb a2bd b1a4 febd f8af 09be
000002b0: 707f 133c 64c1 293d 88de 7f3d 8761 1e3e
000002c0: 9ea6 dabd 0096 19ba de9a d13d 43c7 02be
000002d0: 924d a03d 2c0c 11bd e925 30be b059 e53c
000002e0: ff3e 243e 26e6 c93d f436 29be 4077 3b3d
000002f0: 9bf3 2cbe 38db f3bd b8dc 403d 858c 243e
00000300: 20e4 1c3d da1c d93d b6b1 9b3d 4f22 15be
00000310: 027f c73d 3837 23bd e503 033e e234 ed3d
00000320: a03c 1ebd c2a3 10be 7807 02bd 21d8 98bd
00000330: 3072 f4bd 4fc8 2bbe 66fc 21be 6051 c43b
00000340: b0eb 9d3c 921c d5bd aa49 9e3d c0af 013c
00000350: d149 bfbd 66e1 f23d 2c1f 753d 006a 523d
00000360: ec3f 033d 322a ba3d 178b 213e 9a04 c43d
00000370: 0006 423c 2e38 893d d816 673d 2096 163c
00000380: 0073 d03b 7ecb 30be b556 a2bd e4f0 493d
00000390: 7050 9bbc 042b 33be 1023 25bc 7835 8d3c
000003a0: e394 133e b865 4dbd a627 f63d 0a7e c23d
000003b0: 3830 38bd 5ba1 0e3e 1ecf a2bd 897f 2d3e
000003c0: 2e07 b63d 04d7 453d 003a 1ebd 801a 0f3d
000003d0: 28c0 24bd 56fc 873d 73d6 0c3e 5c56 923d
000003e0: 6ce1 3c3d 5279 17be 441f 49bd 84a3 03bd
000003f0: 3271 ea3d bcee 08be eed4 7cbd cc1f 873d

attention.weight_matrix f4 [64, 64]
-0.10082802 -0.16563621 -0.19988295 0.084776446 -0.119568065 0.10540365 -0.20719594 -0.05828458
-0.19226187 0.21473093 -0.0675893 -0.09637084 -0.011339337 0.21145816 0.1695107 0.09731229
-0.09519387 -0.17309639 -0.13216917 0.07814224 -0.21035063 0.037886396 -0.0014170557 0.102759525
-0.03977105 0.039252505 0.16937985 -0.16737697 -0.08934109 0.120459214 -0.07046446 -0.05959791
0.1379485 0.058393285 -0.20304343 0.048441485 0.14386417 -0.07707162 0.03286998 -0.023294896
-0.06097056 0.03434916 0.010412559 0.14736785 0.19678555 -0.061611056 0.0005392134 0.17473765
-0.15262872 -0.10392083 0.16619904 -0.21045347 0.077717766 -0.1985088 -0.160587 -0.120441616
0.1328746 0.052155033 0.112945005 0.19164671 0.12034015 0.16768895 -0.13371994 -0.06292032
0.1467069 -0.053226575 0.054868028 0.17303152 0.10479753 -0.16285723 -0.1869019 0.15448181
-0.10545532 -0.15464735 0.18196677 0.016453594 -0.21196876 0.08745785 -0.023267642 0.068690345
0.07112084 -0.007997736 -0.20955281 0.16556548 0.10537805 0.21202473 -0.13608155 -0.10683096
-0.13886435 0.12870716 -0.08621797 0.17028378 -0.04137057 -0.18250558 -0.015820667 0.030302286
0.177767 -0.0027163029 0.083747074 0.06429492 0.096264854 -0.018194735 -0.017179474 0.022051826
-0.031293303 -0.16019733 -0.19924062 0.16967125 -0.10915297 -0.116821565 0.17780979 -0.043011457
-0.05633305 0.021009147 -0.09257066 -0.019579992 -0.05950357 0.14831935 -0.012455672 -0.16123852
0.17513512 0.13790466 0.0023673624 -0.10810991 -0.1106331 -0.081231385 -0.06272696 -0.085738555
-0.03836809 -0.12031644 -0.20088503 0.17844905 0.11642693 0.0062545687 -0.1347146 -0.0819421
0.08425622 -0.1040889 0.09287067 0.19946854 0.10023902 0.124841794 0.20532925 0.09402843
-0.14923185 0.17786531 -0.1068607 0.020717472 0.047547594 0.13849096 -0.18340974 0.09325223
0.08010207 -0.14953421 -0.21457238 0.15216084 0.0011078715 -0.12975404 -0.04830867 -0.025317118
0.0035870075 0.1767718 0.0699002 0.038589343 -0.18973537 0.06326462 0.14588375 0.10927473
-0.030367017 0.09279488 0.1866589 -0.1050693 -0.05591032 -0.17117628 -0.21438178 0.19665109
-0.004047245 -0.0347061 -0.09269806 0.20439781 -0.17162557 -0.09028749 0.12025191 0.0224607
-0.17478877 0.1463045 0.032602698 0.083956644 0.028649867 -0.04691167 0.07057403 -0.09637858
0.036406174 -0.10972437 -0.15725687 0.10587515 -0.05041617 -0.061968282 -0.15035671 -0.18439487
0.17893593 0.21185078 0.12806155 0.049368337 -0.17042115 0.03641747 0.18912946 0.040980354
0.08141263 -0.057306692 -0.09154584 0.11395724 0.14298107 -0.124335736 -0.007095799 -0.16416116
-0.07017146 0.20828144 0.19875725 -0.07941988 -0.099771015 0.20596506 0.09827827 0.09025182
-0.11766964 0.107651964 -0.106632926 0.037503794 0.14594992 0.025200456 0.0070733726 -0.044687897
0.11825986 -0.008661464 0.075905696 -0.045051068 -0.088773355 0.1609749 -0.19042067 0.19467197
-0.02764146 0.18543105 -0.16580799 -0.012901068 0.12512808 -0.049621627 -0.16801071 0.05549185
-0.1761287 0.115977004 -0.14740533 0.038781807 -0.1624999 0.018060118 -0.10525364 0.12352274
00000000: ec7e cebd 8a9c 29be 1eae 4cbe 469f ad3d
00000010: 1ae0 f4bd dedd d73d 2c2b 54be d0bb 6ebd
00000020: 4ce0 44be 6de2 5b3e 426c 8abd 135e c5bd
00000030: a0c8 39bc 7d88 583e 3794 2d3e aa4b c73d
00000040: 01f5 c2bd 2e40 31be 5b57 07be 0a09 a03d
00000050: 2866 57be c42e 1b3d 80bc b9ba 9673 d23d
00000060: f8e6 22bd 3cc7 203d e971 2d3e de64 2bbe
00000070: 76f8 b6bd 52b3 f63d ac4f 90bd f01c 74bd
00000080: 5f42 0d3e cc2d 6f3d 9eea 4fbe 946a 463d
00000090: 2151 133e bad7 9dbd aca2 063d f0d4 bebc
000000a0: 44bc 79bd b4b1 0c3d 7099 2a3c 99e7 163e
000000b0: 2782 493e e05b 7cbd 005a 0d3a 6dee 323e
000000c0: b44a 1cbe 72d4 d4bd 1530 2a3e 1d81 57be
000000d0: 7e2a 9f3d e445 4bbe eb70 24be 18aa f6bd
000000e0: 4710 083e 84a0 553d b64f e73d 093f 443e
000000f0: e674 f63d a7b6 2b3e e1ed 08be 5edc 80bd
00000100: 553a 163e 1c04 5abd 4cbd 603d 2d2f 313e
00000110: 16a0 d63d 0cc4 26be 3663 3fbe 7b30 1e3e
00000120: f5f8 d7bd e05b 1ebe 7f55 3a3e b0c9 863c
00000130: 570e 59be 1a1d b33d c89b bebc 86ad 8c3d
00000140: cea7 913d f008 03bc 0395 56be ff89 293e
00000150: 72d0 d73d 031d 593e f658 0bbe 31ca dabd
00000160: 7532 0ebe cfcb 033e 0c93 b0bd df5e 2e3e
00000170: 3074 29bd bee2 3abe 589a 81bc 803c f83c
00000180: 8d08 363e 0004 32bb 9683 ab3d 0ead 833d
00000190: 8226 c53d 200d 95bc f8bb 8cbc 08a6 b43c
000001a0: 682d 00bd c50a 24be bc05 4cbe 4dbe 2d3e
000001b0: 988b dfbd 2540 efbd c513 363e c82c 30bd
000001c0: 7cbd 66bd 601b ac3c b095 bdbd 3866 a0bc
000001d0: 04ba 73bd 07e1 173e e012 4cbc b61b 25be
000001e0: 9f56 333e e136 0d3e c025 1b3b ba68 ddbd
000001f0: 9b93 e2bd a45c a6bd fe76 80bd b297 afbd
00000200: dc27 1dbd 7768 f6bd ceb4 4dbe 59bb 363e
00000210: 3e71 ee3d 20f3 cc3b a0f2 09be 42d1 a7bd
00000220: 868e ac3d 902c d5bd fa32 be3d 7b41 4c3e
00000230: 1e4a cd3d 0ead ff3d d541 523e fa91 c03d
00000240: 3cd0 18be 5322 363e c8d9 dabd b0b7 a93c
00000250: 44c1 423d 93d0 0d3e c3cf 3bbe 06fb be3d
00000260: 8e0c a43d 7f1f 19be ddb8 5bbe 0dd0 1b3e
00000270: 0036 913a 3ede 04be 50df 45bd d865 cfbc
00000280: 0014 6b3b ab03 353e d627 8f3d dc0f 1e3d
00000290: fd49 42be e290 813d 8d62 153e 6ecb df3d
000002a0: 40c4 f8bc 3e0b be3d 8323 3f3e 932e d7bd
000002b0: 3802 65bd d648 2fbe e686 5bbe e75e 493e
000002c0: c09e 84bb fc27 0ebd 7bd8 bdbd a94d 513e
000002d0: 9dbe 2fbe a6e8 b8bd a246 f63d 80ff b73c
000002e0: d4fb 32be d9d0 153e 688a 053d 76f1 ab3d
000002f0: 20b3 ea3c 7426 40bd 1e89 903d 2262 c5bd
00000300: a41e 153d 2cb7 e0bd f207 21be 12d5 d83d
00000310: 3081 4ebd 74d2 7dbd 1cf7 19be 02d2 3cbe
00000320: fb3a 373e 69ef 583e 9122 033e 7436 4a3d
00000330: e282 2ebe 7c2a 153d 27ab 413e 04db 273d
00000340: aabb a63d 6cba 6abd 637c bbbd 6a62 e93d
00000350: a169 123e bca3 febd e083 e8bb dd19 28be
00000360: 0eb6 8fbd bb47 553e 0587 4b3e e4a6 a2bd
00000370: bf54 ccbd 81e8 523e 1e46 c93d f2d5 b83d
00000380: c8fc f0bd a278 dc3d 5d62 dabd 949d 193d
00000390: e573 153e 3071 ce3c c0c7 e73b a80a 37bd
000003a0: 3a32 f23d d0e8 0dbc 7274 9b3d 7887 38bd
000003b0: cece b5bd 9bd6 243e a3fd 42be 1758 473e
000003c0: 5870 e2bc a3e1 3d3e 92c9 29be 005f 53bc
000003d0: 9321 003e 0c40 4bbd 000b 2cbe 6c4b 633d
000003e0: 155b 34be 5a85 ed3d 6cf1 16be acd9 1e3d
000003f0: 6066 26be d0f2 933c 388f d7bd 7ef9 fc3d

tensor_network.weight_matrix f4 [64, 64, 32]
0.024985801 0.009529911 0.037776787 0.017746415 -0.01917491 -0.015395656 0.022399887 0.008554358
0.03775693 0.012234051 0.036610056 -0.0027176999 -0.03617832 -0.015188472 -0.020990897 -0.0061027817
0.0047025494 -0.032486048 0.012116507 0.014193945 0.019889273 0.010359507 -0.022746947 0.019399446
0.038040582 -0.034028597 0.03031462 -0.009479623 0.021428205 -0.03183148 0.027710695 0.02437948
-0.014758304 -0.020051751 -0.024019582 0.025334511 -0.00035805255 -0.016296642 -0.016120976 0.015362602
0.021722883 -0.0013165027 0.0055255108 -0.017079001 0.032101993 0.020791706 -0.02614088 0.031020898
-0.016601369 -0.0020859241 0.031433415 -0.018856805 0.036733005 0.020637963 0.03713193 0.023970287
-0.0032721162 -0.031322613 0.0015115477 0.031919245 0.01012953 0.022196282 0.00031352788 -0.003779538
0.024560805 0.031024415 0.007860746 -0.0084381215 -0.028821822 0.0073655806 0.015098993 -0.012870602
0.030957524 0.028891828 -0.018057501 -0.0050608963 0.017564144 -0.015723944 -0.0083483085 -0.026532233
0.028327521 -0.022614893 0.03097419 0.012843568 -0.0360353 -0.007508643 0.017597161 0.033924926
0.020732787 0.027231049 0.030782204 0.036430877 -0.02570248 0.032255467 -0.0010612272 -0.0066241696
0.021863617 0.03351677 0.0039234348 -0.033151485 0.0037256815 0.03788035 -0.03650661 0.024261083
0.021396242 0.0004130453 -0.02935423 0.02162997 -0.037969235 -0.03348689 0.032611337 -0.0295416
-0.0027576834 -0.037065774 -0.031602122 -0.0021731406 0.0023567192 -0.030296689 -0.034338363 -0.024578393
0.029419977 -0.03515432 -0.014815334 0.010664295 0.033923183 0.015845124 -0.0068018623 -0.031170784
-0.034325927 -0.028874608 0.009471361 -0.010376668 0.0118405 0.0027558878 -0.033335403 0.0050040744
0.0018978342 0.035628106 0.018580753 0.02722716 -0.014601069 -0.016810264 0.0376493 0.009244535
0.0029996708 0.027340312 0.013072278 -0.0058008134 -0.019834187 -0.02930488 -0.00945626 0.02537198
-0.015799116 0.023732934 0.011146836 -0.02620354 -0.0035685822 0.03620297 0.029048402 -0.024978094
0.02003054 0.017622914 0.028271142 -0.0083034225 -0.0035359748 -0.026814653 -0.020882346 -0.014003109
0.025569502 0.009684131 -0.020544505 0.028048184 0.008407772 -0.001258634 -0.024918213 0.023643907
-0.026478153 0.034889277 0.019286003 0.027539495 0.005343359 -0.02620016 -0.015087854 -0.006136995
-0.036106866 -0.021161404 -0.0005064346 0.0016212501 -0.02725568 -0.02587733 -0.0069467723 -0.02879245
0.017116964 0.022926725 -0.016856309 0.020902775 0.023449954 0.02470344 -0.022758603 0.010568447
-0.03099937 -0.023316443 -0.01477465 0.032805514 0.027632091 0.028871987 0.035490964 -0.03309542
-0.010869248 0.0036272258 -0.02414699 -0.03744285 -0.027823556 0.030271057 -0.0368375 -0.0027709492
-0.023690227 0.023407396 0.008764926 -0.0037909113 0.030068684 0.019307438 -0.0012884513 -0.030305427
0.034173492 -0.037285797 0.015425574 0.037695047 -0.024978869 0.0026976466 0.031176608 -0.016896693
-0.03522824 0.030651402 -0.005587265 -0.015758026 -0.0066848733 -0.008605717 -0.0055881143 0.037383404
0.028577875 -0.0048916526 -0.0010696948 -0.006423395 -0.02048582 0.025415722 -0.034666333 0.008032713
-0.021154793 0.0057578273 -0.031021168 -0.023423424 0.0010816865 0.007920835 0.030277055 -0.0100624915
00000000: 06af cc3c 5823 1c3c d5bb 1a3d ee60 913c
00000010: b314 9dbc 103e 7cbc f87f b73c 9427 0c3c
00000020: 03a7 1a3d 5471 483c 6df4 153d 701b 32bb
00000030: b82f 14bd 12d9 78bc 1af5 abbc d8f9 c7bb
00000040: d817 9a3b 1710 05bd 5084 463c b88d 683c
00000050: d4ee a23c ecba 293c ce57 babc 96eb 9e3c
00000060: 71d0 1b3d 9261 0bbd 5e56 f83c 6c50 1bbc
00000070: 348a af3c ba61 02bd 8a01 e33c 7ab7 c73c
00000080: d0cc 71bc 9243 a4bc b7c4 c4bc 528a cf3c
00000090: 00b9 bbb9 8980 85bc 2310 84bc 6cb3 7b3c
000000a0: 30f4 b13c 808e acba 580f b53b 43e9 8bbc
000000b0: 617d 033d 5e53 aa3c 6625 d6bc 8a1f fe3c
000000c0: 98ff 87bc 00b4 08bb 53c0 003d 9679 9abc
000000d0: 5975 163d f210 a93c a717 183d 565d c43c
000000e0: 0071 56bb 244c 00bd 201f c63a c1bd 023d
000000f0: 54f6 253c fad4 b53c 0061 a439 20b2 77bb
00000100: be33 c93c ea26 fe3c 5cca 003c 0c40 0abc
00000110: be1b ecbc f85a f13b c461 773c 38df 52bc
00000120: a29a fd3c 8eae ec3c 53ed 93bc e0d5 a5bb
00000130: aee2 8f3c 80cf 80bc 58c7 08bc 205a d9bc
00000140: 1e0f e83c de42 b9bc 96bd fd3c d46d 523c
00000150: c099 13bd 100b f6bb ec27 903c ddf4 0a3d
00000160: ced7 a93c a613 df3c f62a fc3c 8b38 153d
00000170: 028e d2bc 4f1e 043d e018 8bba 900f d9bb
00000180: 541b b33c e148 093d 2890 803b dac9 07bd
00000190: 902a 743b 6d28 1b3d f587 15bd 2ebf c63c
000001a0: 2c47 af3c 008e d839 4878 f0bc 5631 b13c
000001b0: a185 1bbd 8d29 09bd 7793 053d 3a01 f2bc
000001c0: 40ba 34bb 48d2 17bd 3a71 01bd 406b 0ebb
000001d0: 3073 1a3b c330 f8bc 62a6 0cbd a058 c9bc
000001e0: 2a02 f13c fafd 0fbd 04bc 72bc 4cb9 2e3c
000001f0: 09f3 0a3d a2cd 813c 28e2 debb df59 ffbc
00000200: 5899 0cbd 718a ecbc c42d 1b3c e602 2abc
00000210: a8fe 413c 209c 343b b48a 08bd 38f9 a33b
00000220: c0c0 f83a c7ee 113d aa36 983c 7e0b df3c
00000230: 5239 6fbc aeb5 89bc 2736 1a3d 6476 173c
00000240: 2096 443b caf8 df3c 1c2d 563c c014 bebb
00000250: 4e7b a2bc ca10 f0bc 6eee 1abc e6d8 cf3c
00000260: 266d 81bc 926b c23c 38a1 363c cea8 d6bc
00000270: e0de 69bb 9149 143d eaf6 ed3c dc9e ccbc
00000280: 1617 a43c ee5d 903c e298 e73c 140b 08bc
00000290: d0bb 67bb 67aa dbbc 7411 abbc 4c6d 65bc
000002a0: 2277 d13c 30aa 1e3c f34c a8bc 4ec5 e53c
000002b0: c0c0 093c c0f8 a4ba 4821 ccbc deb0 c13c
000002c0: b6e8 d8bc 0fe8 0e3d aefd 9d3c 829a e13c
000002d0: 5817 af3b b8a1 d6bc 0c33 77bc d818 c9bb
000002e0: cbe4 13bd ae5a adbc 40c2 04ba 2080 d43a
000002f0: 4e47 dfbc b2fc d3bc c0a1 e3bb 25de ebbc
00000300: e038 8c3c d4d0 bb3c 3e16 8abc 4c3c ab3c
00000310: 1e1a c03c de5e ca3c 4070 babc 4827 2d3c
00000320: 64f2 fdbc 2002 bfbc 6011 72bc 135f 063d
00000330: b25c e23c f284 ec3c f95e 113d 108f 07bd
00000340: ee14 32bc c0b6 6d3b e9cf c5bc ad5d 19bd
00000350: 3aee e3bc 02fb f73c ebe2 16bd d098 35bb
00000360: 0212 c2bc dec0 bf3c c49a 0f3c f070 78bb
00000370: 9a52 f63c a22a 9e3c 40e1 a8ba 1643 f8bc
00000380: 81f9 0b3d feb8 18bd 8cbb 7c3c 1f66 1a3d
00000390: 7ca0 ccbc 00cb 303b 1666 ff3c ef6a 8abc
000003a0: 7d4b 10bd a618 fb3c 6015 b7bb fa16 81bc
000003b0: c80c dbbb fefe 0cbc 801c b7bb 571f 193d
000003c0: 261c ea3c 284a a0bb 0035 8cba 587b d2bb
000003d0: e1d1 a7bc a234 d03c 49fe 0dbd a49b 033c
000003e0: d14c adbc 28ac bc3b 1b20 febc 7be2 bfbc
000003f0: 60c7 8d3a 64c6 013c 9607 f83c 26dd 24bc

tensor_network.weight_matrix_block f4 [32, 128]
0.12837511 0.13036251 0.08824766 0.170769 0.06129217 0.007205978 0.14181769 -0.026860476
-0.037560582 0.19029403 -0.12311347 -0.11036697 -0.067328095 0.021087945 0.04776992 -0.02617982
0.045481384 0.1633803 -0.103969485 -0.08990493 -0.08236082 0.033581734 0.12390524 -0.14359878
-0.15908048 0.12290034 0.085908175 0.17446166 0.02186121 0.13712868 0.06386235 0.03073275
-0.011905417 0.16758525 -0.14826219 0.19099316 0.026084825 -0.095884874 -0.13004749 0.108137816
-0.052852035 0.19067118 -0.10214685 -0.035763428 -0.1031338 0.04597786 0.0071413666 -0.15928665
-0.1784659 -0.1632694 -0.05693707 0.14032179 0.02047816 0.005831763 0.11388087 -0.0018799156
-0.11618027 0.09508139 0.11701679 0.031552017 0.041279122 -0.090968095 0.037707448 0.11449745
-0.074593045 -0.09972071 0.046643853 0.001118198 -0.0015549511 0.18752313 0.12078789 0.16911027
0.05438119 0.06838429 0.07875487 -0.11671937 0.16983014 0.045105174 -0.18428199 0.08216828
-0.058903605 0.055882826 -0.17833404 -0.18721609 -0.06913973 0.1593242 -0.16252881 0.09299132
-0.19183464 0.1518366 0.019767404 0.0001052022 -0.12226521 -0.11328872 0.106839746 -0.18668108
-0.1395234 -0.06733024 0.030468374 0.055760503 0.13373435 0.12962651 0.15755033 0.18247345
-0.10787389 0.12963784 0.07097125 -0.14288288 0.012839779 0.12541535 -0.11849321 0.15142989
-0.15133983 0.039917678 0.1670129 0.06537616 0.05763793 0.08458263 0.073942274 0.1064859
0.08294171 -0.14017299 -0.026244506 -0.14547235 0.18966547 0.17899486 -0.07467707 -0.015936852
-0.18336345 0.11856142 0.02204153 0.08455065 -0.103893675 0.15011376 -0.17454207 0.010771632
-0.06788424 0.1880477 -0.051051944 0.18719748 0.0045574903 0.17916143 0.08723119 0.09113681
-0.11705659 -0.05417511 0.024236292 0.112238586 0.09563762 -0.074896604 0.18937236 0.14735585
-0.06941217 0.083596975 -0.058538243 0.100015014 -0.11666746 0.17906716 -0.034174204 -0.081789814
0.06782141 0.026500642 -0.14497742 -0.18851301 -0.10431359 0.09425506 -0.12464265 0.104264915
0.025435105 0.12334958 -0.1004042 0.07012853 0.18676761 0.08395746 0.047911078 0.106149256
0.03143701 -0.18073912 0.11294928 0.07359639 -0.03725694 -0.082606256 -0.116608776 0.105068475
-0.089764476 -0.08873799 -0.14653477 -0.102701716 0.05812779 -0.17897364 0.012595862 -0.03692475
0.1587812 0.094637364 -0.049492806 0.15409392 -0.1461356 0.018714502 -0.0061585754 -0.16660061
-0.05225949 -0.044565633 -0.14106895 -0.044506714 -0.102364495 0.12318623 0.014488742 -0.08449004
-0.07598725 0.17853168 0.15303013 -0.14126447 -0.0006760806 -0.13989256 -0.15593083 -0.17504586
-0.09396754 -0.078936465 -0.15219219 -0.096850835 0.19140643 -0.062221676 -0.081735566 -0.18356849
0.1419048 -0.17993219 -0.055631578 -0.123397335 -0.14942956 0.11720699 0.118312925 -0.08767392
-0.087195575 0.1656518 -0.088566445 -0.17431685 0.074893475 -0.0735076 0.15255994 -0.088395014
0.15874654 -0.03128037 0.16570985 -0.009133905 0.04471676 0.08991763 0.09526318 -0.13441262
0.043908134 -0.10434838 0.029710844 0.027864441 -0.07274363 -0.014251158 0.08314273 -0.17069812
00000000: c474 033e c07d 053e 30bb b43d 12de 2e3e
00000010: 800d 7b3d 2020 ec3b a838 113e 800a dcbc
00000020: 20d9 19bd 70dc 423e ea22 fcbd 1408 e2bd
00000030: 50e3 89bd a0c0 ac3c 64aa 433d 1077 d6bc
00000040: b04a 3a3d 2a4d 273e f4ed d4bd 1320 b8bd
00000050: caac a8bd 008d 093d 08c2 fd3d 8f0b 13be
00000060: fee5 22be 2cb3 fb3d a0f0 af3d 14a6 323e
00000070: 4816 b33c 766b 0c3e 44ca 823d 40c3 fb3c
00000080: f00e 43bc 789b 2b3e 0bd2 17be b693 433e
00000090: d8af d53c 4a5f c4bd 2b2b 05be 5c77 dd3d
000000a0: 607b 58bd 4e3f 433e 5e32 d1bd ac7c 12bd
000000b0: d037 d3bd 4853 3c3d 2002 ea3b 0a1c 23be
000000c0: c4bf 36be 1830 27be d836 69bd 84b0 0f3e
000000d0: d0c1 a73c 6018 bf3b 603a e93d 8067 f6ba
000000e0: ecef edbd 08ba c23d 80a6 ef3d b03c 013d
000000f0: 4c14 293d 7b4d babd 2073 1a3d a47d ea3d
00000100: 3dc4 98bd 5f3a ccbd a00d 3f3d 8090 923a
00000110: 80cf cbba 1006 403e a45f f73d 3e2b 2d3e
00000120: d0be 5e3d 100d 8c3d 3c4a a13d 910a efbd
00000130: f4e7 2d3e 34c0 383d 6bb4 3cbe d847 a83d
00000140: e844 71bd 64e5 643d 339d 36be 93b5 3fbe
00000150: 2199 8dbd e225 233e f46d 26be 3c72 be3d
00000160: 4d70 44be 0e7b 1b3e 40ef a13c 00a0 dc38
00000170: 2f66 fabd eb03 e8bd ccce da3d 5329 3fbe
00000180: 39df 0ebe 70e4 89bd d098 f93c 2065 643d
00000190: a8f1 083e d0bc 043e e054 213e 52da 3a3e
000001a0: fcec dcbd c8bf 043e 6059 913d e44f 12be
000001b0: f05d 523c e26c 003e 91ac f2bd 7010 1b3e
000001c0: d4f8 1abe b880 233d 6e05 2b3e f0e3 853d
000001d0: c015 6c3d a839 ad3d 0c6f 973d 4815 da3d
000001e0: 58dd a93d 8289 0fbe b8fe d6bc b4f6 14be
000001f0: aa37 423e 6e4a 373e 4bf0 98bd 008e 82bc
00000200: a1c3 3bbe 54d0 f23d 7090 b43c e428 ad3d
00000210: 35c6 d4bd 6cb7 193e 28bb 32be 807b 303c
00000220: e406 8bbd 948f 403e d81b 51bd b2b0 3f3e
00000230: 0057 953b 1876 373e 44a6 b23d f0a5 ba3d
00000240: 5ebb efbd b8e6 5dbd 308b c63c 58dd e53d
00000250: a8dd c33d 6463 99bd d4ea 413e 74e4 163e
00000260: f827 8ebd e434 ab3d ccc5 6fbd acd4 cc3d
00000270: 59ef eebd 625d 373e 40fa 0bbd 6b81 a7bd
00000280: f4e5 8a3d e017 d93c f674 14be 8e09 41be
00000290: 5da2 d5bd cc08 c13d a544 ffbd d888 d53d
000002a0: 485d d03c b49e fc3d b8a0 cdbd 8c9f 8f3d
000002b0: 0240 3f3e e4f1 ab3d 683e 443d c864 d93d
000002c0: 18c4 003d ad13 39be f451 e73d b4b9 963d
000002d0: bc9a 18bd 782d a9bd 95d0 eebd 242e d73d
000002e0: 70d6 b7bd 43bc b5bd 360d 16be 4755 d2bd
000002f0: 6817 6e3d de44 37be e05e 4e3c 683e 17bd
00000300: 8a97 223e 3cd1 c13d f8b8 4abd ccca 1d3e
00000310: 92a4 15be 284f 993c e0cd c9bb 5a99 2abe
00000320: 0c0e 56bd 748a 36bd 6174 10be ac4c 36bd
00000330: 7aa4 d1bd 1049 fc3d 3062 6d3c 1d09 adbd
00000340: 349f 9bbd 02d1 363e eeb3 1c3e a2a7 10be
00000350: 003b 31ba ff3f 0fbe 55ac 1fbe 393f 33be
00000360: 0e72 c0bd 71a9 a1bd 45d8 1bbe bb59 c6bd
00000370: 0c00 443e 28dc 7ebd fa64 a7bd 61f9 3bbe
00000380: 7e4f 113e 2540 38be f0dd 63bd beb7 fcbd
00000390: 1004 19be 380a f03d 0c4e f23d 628e b3bd
000003a0: 9893 b2bd a0a0 293e 5362 b5bd 1e80 32be
000003b0: c061 993d 278b 96bd ac38 1c3e 7208 b5bd
000003c0: 748e 223e d81f 00bd d8af 293e 60a6 15bc
000003d0: ec28 373d bc26 b83d 5819 c33d 76a3 09be
000003e0: 04d9 333d 9ab4 d5bd 2864 f33c f843 e43c
000003f0: 9dfa 94bd b07d 69bc bc46 aa3d 7dcb 2ebe

tensor_network.bias f4 [32, 1]
0.345985 -0.33341902 -0.3971235 -0.25861537 -0.40503687 -0.17944324 0.29660773 0.076761305
0.16141874 0.38164306 0.21070516 0.020795017 0.15899378 0.36391467 0.16297412 -0.118156165
0.029956609 -0.15894553 0.0199382 0.38256633 -0.019871831 -0.24990462 -0.06202838 0.15989906
-0.03369522 -0.04529226 -0.12536046 -0.21954824 -0.23668347 0.3752029 -0.0112095475 -0.32237583
00000000: f224 b13e e6b5 aabe c553 cbbe 3c69 84be
00000010: fe60 cfbe f8bf 37be f8dc 973e 0835 9d3d
00000020: f44a 253e b866 c33e 18c3 573e 505a aa3c
00000030: 44cf 223e 0653 ba3e b0e2 263e dcfb f1bd
00000040: 9067 f53c 9ec2 22be 7055 a33c bcdf c33e
00000050: 40ca a2bc ffe6 7fbe 7811 7ebd 94bc 233e
00000060: 0004 0abd 6084 39bd 7e5e 00be 41d1 60be
00000070: 275d 72be 981a c03e 40a8 37bc 720e a5be

fully_connected_first.weight f4 [32, 32]
-0.07635725 0.13184346 -0.06486914 0.17106946 0.1074024 -0.005312592 -0.09021242 0.1713747
-0.06662734 0.09342249 0.0970677 0.015972704 0.13125186 -0.13944548 -0.0733886 0.10759632
0.11002092 0.013382673 -0.060983032 -0.059171095 0.13810627 0.13441564 0.13208707 0.07831831
-0.006131813 0.17494152 -0.10441477 0.048978984 0.14105569 0.02989152 0.14282514 -0.019512698
-0.10832507 0.044099152 -0.07461674 0.1598341 0.15144424 -0.13336363 0.11112253 -0.15933785
0.16227104 0.09021138 -0.15974014 -0.0074008405 -0.14967035 -0.15388307 -0.08994232 0.10729046
-0.1717547 -0.01884821 0.09018205 0.0018198937 -0.038936213 -0.13183892 -0.06852479 0.07069576
0.13945843 0.1708933 0.013901532 0.1490828 -0.009038314 0.13337965 0.1494251 0.1037495
-0.12885357 -0.15577176 -0.0048478544 0.06119512 0.0021464378 -0.013536036 -0.05917135 -0.1707241
-0.07342872 -0.0011789501 -0.15041472 -0.1527031 0.12204738 -0.091157585 0.14096008 0.041547358
0.089913145 0.14222468 -8.764863e-05 0.08535437 0.107379094 0.031594053 -0.07092023 -0.09489673
0.1684917 0.14126672 0.13377394 0.14098726 -0.16498719 -0.037872806 0.04308188 0.13976918
-0.12016513 -0.117338344 0.15355466 -0.038452357 -0.15692024 0.08589463 0.013819933 0.1639631
-0.11606949 -0.100144364 -0.101487674 0.1001582 -0.11041052 -0.17302006 0.00029458106 -0.03252314
-0.09986999 0.025329545 -0.056454502 0.003405258 0.1018814 -0.089502014 0.17459126 -0.08081854
-0.10607702 -0.13865861 -0.03541787 0.15392978 0.024322882 -0.13547815 0.08486895 0.1609924
0.10436134 -0.015518263 -0.0031523108 -0.16143174 0.08268128 0.021119371 0.13112532 0.10372709
-0.13998061 -0.01725404 -0.11912115 -0.17603453 -0.15840353 -0.1206619 -0.04461184 -0.15544204
0.115930274 -0.121769875 0.04750842 -0.13082486 0.004475221 -0.05979175 -0.13953812 -0.13453287
-0.0020825863 0.069701135 -0.06364035 -0.08062489 -0.011057228 0.06546228 -0.03883402 -0.04424353
0.14822836 0.09752335 -0.035291657 -0.0031511039 -0.119912185 -0.06952026 0.15562837 0.05391237
0.06285077 0.16285975 0.10807647 -0.058928393 -0.037597626 0.026687399 0.13459696 -0.038378894
0.15896945 0.011472955 0.10246582 0.073086455 -0.115953654 0.109768584 -0.12268838 0.057719544
-0.100442894 0.06738426 -0.0016699582 0.03312373 -0.14095959 -0.07670969 0.03580849 0.1108879
0.03912081 0.075866684 -0.101754695 -0.14513141 -0.15528134 -0.11174988 0.16707341 -0.11857998
-0.009018794 0.1652065 -0.0006109178 -0.09907108 0.076305404 0.13764282 -0.000761345 0.076098874
-0.024533063 -0.17019542 -0.13749868 0.035843804 0.12425937 0.092019424 0.013030767 0.13170551
-0.09401345 -0.028363854 -0.14256139 0.08032392 -0.018378139 0.1584724 0.011363 -0.049809426
-0.053012498 0.16297336 0.10354759 -0.1629012 -0.08043932 -0.06941464 -0.05973532 -0.08617597
-0.17428918 0.13322137 -0.17112543 0.100435 0.11947353 0.112101 -0.009194881 -0.061334223
0.1647286 -0.094150245 -0.10817193 0.056415394 -0.05845298 0.0055768937 0.089385256 0.022697821
-0.1322447 -0.01489383 -0.11159758 0.002766937 0.02528724 -0.031262636 0.12694149 0.17085151
00000000: 3161 9cbd f901 073e 1dda 84bd d52c 2f3e
00000010: caf5 db3d 4015 aebb 4ac1 b8bd d97c 2f3e
00000020: ea73 88bd 4a54 bf3d 6ecb c63d 30d9 823c
00000030: e366 063e ccca 0ebe c34c 96bd 765b dc3d
00000040: a652 e13d 0043 5b3c 58c9 79bd 645d 72bd
00000050: bb6b 0d3e 41a4 093e d541 073e 5a65 a03d
00000060: 60ed c8bb df23 333e 69d7 d5bd 309e 483d
00000070: e770 103e 10df f43c c140 123e 18d9 9fbc
00000080: 89d9 ddbd 50a1 343d a9d0 98bd 8dab 233e
00000090: 3314 1b3e 7a90 08be 3694 e33d 7629 23be
000000a0: 612a 263e bec0 b83d eb92 23be c082 f2bb
000000b0: 2f43 19be 8693 1dbe ae33 b8bd 1abb db3d
000000c0: 77e0 2fbe 9067 9abc 5eb1 b83d 8089 ee3a
000000d0: 947b 1fbd c800 07be ba56 8cbd f0c8 903d
000000e0: 31ce 0e3e a7fe 2e3e 40c3 633c 29a9 183e
000000f0: 7015 14bc ad94 083e e502 193e 9e7a d43d
00000100: 31f2 03be a282 1fbe c0da 9ebb bca7 7a3d
00000110: 40ab 0c3b 40c6 5dbc a85d 72bd 4cd2 2ebe
00000120: cc61 96bd 0087 9aba 5106 1abe 345e 1cbe
00000130: faf3 f93d d4b0 babd d757 103e 902d 2a3d
00000140: 6224 b83d 59a3 113e 00d0 b7b8 46ce ae3d
00000150: 92e9 db3d c468 013d a03e 91bd 3759 c2bd
00000160: 1789 2c3e 39a8 103e 09fc 083e f75e 103e
00000170: 67f2 28be 8420 1bbd a076 303d a71f 0f3e
00000180: 2319 f6bd 164f f0bd 6f3d 1d3e 3880 1dbd
00000190: b3af 20be 86e9 af3d 006d 623c f1e5 273e
000001a0: d7b5 edbd 7d18 cdbd c5d8 cfbd be1f cd3d
000001b0: e91e e2bd 2c2c 31be 0072 9a39 fc36 05bd
000001c0: a388 ccbd e87f cf3c d63c 67bd c02a 5f3b
000001d0: 32a7 d03d d54c b7bd 0dc8 323e 3184 a5bd
000001e0: e93e d9bd 86fc 0dbe 5412 11bd c59f 1d3e
000001f0: c840 c73c c9ba 0abe c6cf ad3d 31db 243e
00000200: 66bb d53d 5040 7ebc 0097 4ebb 5d4e 25be
00000210: ce54 a93d 8802 ad3c b745 063e de6e d43d
00000220: 1457 0fbe 5858 8dbc caf5 f3bd 6542 34be
00000230: 8934 22be 961d f7bd e8ba 36bd 332c 1fbe
00000240: da6c ed3d 7c62 f9bd 3098 423d f4f6 05be
00000250: e0a4 923b 32e8 74bd 15e3 0ebe fcc2 09be
00000260: 007c 08bb 78bf 8e3d df55 82bd aa1e a5bd
00000270: 6029 35bc 1611 863d 6c10 1fbd b438 35bd
00000280: 2dc9 173e 52ba c73d fc8d 10bd c082 4ebb
00000290: 8594 f5bd a360 8ebd 0b5d 1f3e 38d3 5c3d
000002a0: e8b7 803d b5c4 263e 3257 dd3d e65e 71bd
000002b0: f8ff 19bd 889f da3c c9d3 093e 3033 1dbd
000002c0: e3c8 223e 10f9 3b3c 9ad9 d13d 5aae 953d
000002d0: 1c79 edbd 5ace e03d 0c44 fbbd 546b 6c3d
000002e0: 01b5 cdbd c200 8a3d 80e2 daba c0ac 073d
000002f0: b657 10be f819 9dbd ecab 123d 3219 e33d
00000300: 243d 203d fe5f 9b3d c464 d0bd 549d 14be
00000310: 1202 1fbe 1fdd e4bd 4b15 2b3e 10da f2bd
00000320: 90c3 13bc e52b 293e 0026 20ba c7e5 cabd
00000330: 0246 9c3d 3df2 0c3e 0095 47ba bad9 9b3d
00000340: 90f9 c8bc b547 2ebe 74cc 0cbe f4d0 123d
00000350: b27b fe3d ae74 bc3d 007f 553c cfdd 063e
00000360: 208a c0bd 505b e8bc 9dfb 11be de80 a43d
00000370: c08d 96bc 9746 223e e02b 3a3c f804 4cbd
00000380: a223 59bd 7de2 263e c210 d43d 92cf 26be
00000390: 5fbd a4bd 4329 8ebd 06ad 74bd 077d b0bd
000003a0: dd78 32be 2f6b 083e 813b 2fbe deb0 cd3d
000003b0: 8aae f43d 3695 e53d 20a6 16bc 9839 7bbd
000003c0: 9dae 283e d8d1 c0bd 3f89 ddbd d413 673d
000003d0: 646c 6fbd 60be b63b 9e0f b73d c8f0 b93c
000003e0: 286b 07be 4005 74bc 468d e4bd 8055 353b
000003f0: 3027 cf3c 400d 00bd f3fc 013e b3f3 2e3e

fully_connected_first.bias f4 [32]
-0.06137704 -0.016652763 0.08466135 0.14770244 -0.14181142 0.008182719 0.12570454 0.1343845
0.0120681375 -0.16185372 0.04793437 -0.13204856 -0.17670558 0.175965 -0.13822955 0.002781421
0.12875293 0.05480212 -0.117968604 -0.13090937 -0.1500577 -0.046561852 0.15243317 0.041736513
-0.124170914 0.107036605 0.14582686 0.04547319 -0.1703816 0.11749528 -0.12788673 -0.17382076
00000000: 7e66 7bbd 606b 88bc ee62 ad3d 4f3f 173e
00000010: 0337 11be d010 063c b1b8 003e 179c 093e
00000020: 70b9 453c fbbc 25be d456 443d bd37 07be
00000030: 4ff2 34be 2b30 343e 0c8c 0dbe 8048 363b
00000040: cfd7 033e 3078 603d 8699 f1bd 1b0d 06be
00000050: baa8 19be a4b7 3ebd 7117 1c3e e8f3 2a3d
00000060: 524d febd 0236 db3d a353 153e 1842 3a3d
00000070: 8478 2ebe 5ea1 f03d bdf4 02be 12fe 31be

scoring_layer.weight f4 [1, 32]
0.10937892 0.037570477 -0.042372137 -0.1645073 0.08560412 -0.113869004 -0.10997307 0.086356625
-0.035314128 -0.115160614 0.14707606 -0.061875492 0.07968204 0.1601399 -0.054450206 -0.103613324
-0.030989707 -0.15212947 -0.1152773 0.08163495 0.010887459 0.10917257 -0.09737562 -0.052637808
0.007276714 -0.05257126 -0.0070549995 -0.15705706 0.092815295 -0.009989366 -0.11106624 0.049003616
00000000: 0e02 e03d 80e3 193d 688e 2dbd 9a74 28be
00000010: 3651 af3d 2734 e9bd 9039 e1bd bedb b03d
00000020: 8ca5 10bd 54d9 ebbd 1b9b 163e 2871 7dbd
00000030: 5630 a33d b7fb 233e 2e07 5fbd 3933 d4bd
00000040: 20de fdbc d4c7 1bbe 8116 ecbd 3a30 a73d
00000050: 5061 323c de95 df3d de6c c7bd be9a 57bd
00000060: 8071 ee3b f654 57bd a02d e7bb 91d3 20be
00000070: f215 be3d 70aa 23bc b276 e3bd 04b8 483d
